cross-entropy/checkpoint.pth (torch_old, 1016 bytes, 3 tensors)

fc1.weight f4 [16, 2]
00000000: 062d 3ebe 6a1a 2240 9bc1 63bf 747b 1940
00000010: 8f0f b9bd 731f 20c0 a289 7fbf 4acb 1d3f
00000020: 2c48 8cbf 4e9f 90bf 6175 a23f a919 a43f
00000030: e0ca c2bf 4e52 5d3f 4726 563e 3860 02c0
00000040: 9c05 7f3f 3fa5 5b40 f551 d93f 5361 c93e
00000050: 7e4f 03bf fdb8 d03f 383c 28be 5441 623f
00000060: e65c 473f 3797 a33f e4cd 6b3d ddb7 7740
00000070: f22b 583f f388 77bf e9ce 93bf d381 aabf
-0.18571863 2.5328622 -0.88967294 2.39816 -0.09036171 -2.5019195 -0.99819386 0.6163832
-1.0959525 -1.1298616 1.2692071 1.2820331 -1.5218163 0.8645371 0.20913039 -2.0371227
0.99617934 3.4319608 1.6978136 0.39332065 -0.5129317 1.6306454 -0.16429222 0.8838093
0.77876127 1.2780522 0.0575694 3.8705971 0.84442055 -0.9669334 -1.1547519 -1.3320869

fc1.bias f4 [16]
00000000: 7ea1 813e a529 f2be 200e 0a3e d28e 78bf
00000010: 22af fbbc e373 9cbf d663 25c0 d89e 953e
00000020: d88a a83e 99e4 cb3e 5587 b6bf 0d24 26be
00000030: 3382 27c0 c0f4 8c3f 8fae 133e 446b 37be
0.2531852 -0.47297397 0.13481951 -0.97092927 -0.030723158 -1.2222866 -2.5842185 0.2922275
0.3291843 0.39822844 -1.426005 -0.1622469 -2.6173217 1.1012192 0.14422058 -0.17912012

fc2.weight f4 [1, 16]
00000000: 47bb dc3f 2ec0 f53f ca1d 5fbf 24ea 1a3f
00000010: dbd2 08bf 4e47 e5bf 9a26 febf 6e3d 00bf
00000020: 2f97 bd3e b5e1 c93f f9f5 0e3f 8f08 9f3e
00000030: f549 2dbf dd3a 5c3e 76f7 223d 8969 263c
1.7244653 1.9199274 -0.8715483 0.6051352 -0.5344674 -1.7912385 -1.985553 -0.50093734
0.37029406 1.5772005 0.55844074 0.31061217 -0.67690974 0.2150683 0.03978678 0.0101569975
